final_mlp.pth (torch, 32292 bytes, 2 tensors)

0.weight f4 [10, 768]
00000000: cfd4 563a 1127 883c 8bc4 113c 0788 c03b
00000010: c5ff 50ba d516 e5bb e1a0 93bc b0d4 68bd
00000020: 0a16 07bd c02d 273c d31f 103c 1669 f83c
00000030: 9ee9 123d 69b1 10bc 2a17 9e3c 5f29 4cbd
00000040: 2d52 743c 4b20 35bd 7c98 163d 02a7 063d
00000050: db4e e9bc ec45 03bd 5bc8 e73b 9e35 37bc
00000060: 57b7 8dbd 432d cabc d4ab 02bd fa2d a3bc
00000070: f77d 893a 535a ad3c d951 89bc 4e58 9bbc
00000080: fcf4 20bc cb8a 173c 77e3 8dba 59d3 84ba
00000090: 2f08 673d fd72 103c d0d8 65bc 4dbf 833c
000000a0: 8117 7b3d 2eda 853c ba73 923c 4429 8fbc
000000b0: 7ebf 1bbd 4539 c7bc 894d 0a3d 18ee f23b
000000c0: 4784 2c3c b883 903c 8c10 843d c6b2 27bd
000000d0: 41f1 a4bb 2f02 583c 82e9 64bd 16a8 bfbc
000000e0: 7db7 75bc 93d8 1f3d 5408 c43a 41a4 1a3c
000000f0: 8335 dabc 99da 673a 85b3 843c 83a5 0439
00000100: f1d3 e03a 2724 58bd cab0 afbc 14fb dfbc
00000110: a98b d23c 9023 713d 9f1f 653d 4d13 3dbd
00000120: 09cd fd3c d6ac 383b 612c 21bc c134 9c3b
00000130: 2aa4 503c 382c dc3c 9b19 9f3c 8af9 b1bc
00000140: b0db 803c bd64 34bd 190a ecbc bae7 adbb
00000150: a2cc 9fbc 8994 273c a494 11bd 021e eabc
00000160: 68d7 923c 5082 2bbd 5a10 1a3c 42de 033c
00000170: 8892 7e3a 45c0 643c f01d 563c e3b2 cdbc
00000180: e694 efbc 1c67 daba db26 f13b 5f1a 123d
00000190: 6dc7 983c dc61 3c3d e8af 4bbd 2a52 603d
000001a0: f30a 173c 2aa1 6e3d 6a2a d43b 4ede 0bbd
000001b0: 2f0b 9ebc fe57 d4bc f25f 983c e94d 80bb
000001c0: 63f6 41bb 0a09 a83c 0816 48bd f171 1a3b
000001d0: b1fd 8abd b17d 5cbc 15b0 f03b 86ba 8fbc
000001e0: 578d ecbc c194 78bc 36f4 5cbd 3ffc 873b
000001f0: c185 a0bc 771b fc3a 32cb ae3d d3cf 8abb
00000200: de7d 5f3c 2dce 7c3d 9af6 44bd c675 1abd
00000210: c00b 163d 9d96 133c 7911 e7bb 58d3 19bd
00000220: cb41 fe3b 9ac4 6fbc 4e70 2cbd c58f c6bc
00000230: 32f0 373c 4e62 88bd b9db 3f3b 5c7d 3bbd
00000240: 382a ddbc 094a ac3c eedf 0a3d a79d a0bc
00000250: 571e 6ebc 0f7a cfbb da2e 873d bda0 b4bb
00000260: f8b7 603b f561 e33c 7cab e1bc 8bdb 60bd
00000270: 0dc6 1a3d bf2c 88ba 8a1d 66bb 19fa e0bc
00000280: 9b99 373d 2f43 4a3c ceeb 563d 5dda ea3c
00000290: 14ac 7d3b 055b ddbb 785e febc 16ca 13bc
000002a0: cda2 1bbd 295d 8cbd ba26 413d 443d 3bbb
000002b0: 9b21 b5bc f60a 123c b32a 903c 8b39 10bc
000002c0: b97f 3bbd cd10 e2bc 7ea9 823c 23af d23c
000002d0: 0a3c 253d 21c2 e8bc ad7f e4bb 71de 2ebc
000002e0: 50ed 9e3d af16 aa3c ec64 66bd 87ff c5bc
000002f0: d7bb ecbb 7e90 203c 53ec ba3c e0f0 a53c
00000300: edec 8fbb 4851 6cbc a272 89bc e8ea 253c
00000310: 725d 9a3b 6c4e 603c a402 c83c 65ff 893a
00000320: c3b3 bb3c bcdd 82bd cf59 c7bc be33 603d
00000330: d310 7c3c b1ea 40bc eced f33c fee2 f03c
00000340: 8f9b a2bc 5502 cfbc 5a42 7c3c 9ff7 883d
00000350: efd5 373b 5f6f 21bc a9ab 32bd b369 523c
00000360: c4e6 cb3c 5923 703c f710 5b3d 41fd a03c
00000370: 21c4 d73c 2012 203d c564 383d 5d26 03bd
00000380: 7b4b 6b3c bf90 b2bc fa2c 0f3c ace0 433d
00000390: adcc a2bd d6df 01bd 6174 813d b819 f63c
000003a0: 8ffb e63b 9e0f cc3a 97a5 8f3b defc b6bc
000003b0: 6f7a 8e3d 7232 a33b f4c4 aabb d26a 623c
000003c0: 8952 a43c 2a32 6abd ed34 d2bc b99e a9bc
000003d0: 641f 353d 7f57 9fbb 36d6 7ebb f559 763c
000003e0: f485 973d 7db5 aabb a334 8c3c 342d aebc
000003f0: a859 03bc f071 603c 4f7e 51bd 33ed 483b
0.0008195163 0.01662019 0.008896957 0.0058755907 -0.0007972683 -0.006991247 -0.018021049 -0.05684346
-0.032980002 0.010203779 0.00879665 0.030323546 0.035867326 -0.00883136 0.019298155 -0.049844142
0.01491217 -0.04422025 0.036766514 0.032874115 -0.028479984 -0.032049105 0.007073445 -0.011182217
-0.06919735 -0.024679786 -0.03190215 -0.019919384 0.0010489811 0.021161234 -0.01676266 -0.018963005
-0.009824034 0.009249399 -0.0010825236 -0.0010133787 0.05640429 0.008816478 -0.014028743 0.01608243
0.061301712 0.016339388 0.017877448 -0.017475732 -0.038024418 -0.0243193 0.03376535 0.007413637
0.010529584 0.017640933 0.064484686 -0.040941976 -0.0050336425 0.013184114 -0.055886753 -0.02339558
-0.01499736 0.0390249 0.0014956095 0.009438575 -0.026636845 0.0008844524 0.016198883 0.00012650159
0.0017153007 -0.052768853 -0.021446604 -0.027341403 0.02570136 0.058871806 0.05593836 -0.046160985
0.030981557 0.002817919 -0.009837241 0.004767031 0.012734452 0.026876554 0.01942139 -0.021725435
0.015729755 -0.044041384 -0.028813409 -0.005307165 -0.019506756 0.010228285 -0.035542145 -0.028578762
0.01792498 -0.041872323 0.009403313 0.008048596 0.0009711166 0.013961856 0.013068661 -0.025109714
-0.029245805 -0.0016662809 0.0073593683 0.03566968 0.018649781 0.045991763 -0.049728304 0.054765858
0.009218919 0.058259167 0.0064747827 -0.034147553 -0.019292442 -0.025920864 0.018600438 -0.0039155376
-0.002959632 0.020512123 -0.048849136 0.002356645 -0.06786669 -0.013457702 0.0073452094 -0.017544996
-0.02887599 -0.015172184 -0.053943835 0.004149943 -0.019595029 0.0019234259 0.0853485 -0.0042362004
0.013640849 0.061720062 -0.04808674 -0.037709974 0.0366323 0.009008077 -0.0070516434 -0.03755507
0.007759308 -0.014634276 -0.04209929 -0.024238477 0.011226701 -0.06659375 0.0029275252 -0.04577385
-0.02699767 0.021031396 0.033904962 -0.019606424 -0.014533601 -0.006331689 0.06600733 -0.0055123256
0.0034289341 0.02775667 -0.02754759 -0.054896872 0.037786532 -0.0010389312 -0.0035112821 -0.027463006
0.044824224 0.012345119 0.052470975 0.028668577 0.0038707303 -0.006755235 -0.031050906 -0.009020349
-0.037997056 -0.068537064 0.047156073 -0.0028570453 -0.02211075 0.008913746 0.017598486 -0.008802782
-0.045776103 -0.027595902 0.01594996 0.025718277 0.04034046 -0.02841288 -0.006973228 -0.010673151
0.077601075 0.02076277 -0.05624859 -0.024169696 -0.0072245407 0.009800075 0.022817766 0.02025646
-0.0043922574 -0.014423676 -0.016778294 0.010126807 0.0047108466 0.013690572 0.024415322 0.0010528384
0.022912866 -0.06389949 -0.024334816 0.054736845 0.015384871 -0.011774705 0.029776536 0.029405113
-0.019849567 -0.025269667 0.015396679 0.06687855 0.0028051098 -0.009853213 -0.04362074 0.0128425835
0.024890311 0.014656865 0.053482976 0.01965201 0.026338639 0.039079785 0.045017976 -0.032019008
0.014361258 -0.021797536 0.008738751 0.047821686 -0.07949195 -0.031707607 0.06321026 0.03004156
0.007049031 0.0015568619 0.0043837535 -0.022337373 0.06956946 0.004980379 -0.005211467 0.013819413
0.020058887 -0.057176746 -0.025660003 -0.020705568 0.04421939 -0.0048627253 -0.0038885004 0.015036096
0.073985964 -0.0052096234 0.017114943 -0.021261789 -0.008016981 0.01369904 -0.051145848 0.003065896

0.bias f4 [10]
00000000: 5f62 8cbd ea9d acbd adb7 17bd 1827 77bd
00000010: 2ea8 49bd 2f91 6bbd 5473 0fbd 0f39 55bd
00000020: ca0a 27bd 2e3e a4bd
-0.068547 -0.08428557 -0.0370404 -0.060340017 -0.049232654 -0.057511505 -0.035022095 -0.05205637
-0.040781774 -0.08019672
